2024-06-03 17:02:35,832:INFO : ConvNet(
  (conv_layers): Sequential(
    (0): Conv2d(3, 128, kernel_size=(3, 3), stride=(1, 1), padding=(1, 1))
    (1): ReLU()
    (2): MaxPool2d(kernel_size=2, stride=2, padding=1, dilation=1, ceil_mode=False)
    (3): Conv2d(128, 512, kernel_size=(3, 3), stride=(1, 1), padding=(1, 1))
    (4): ReLU()
    (5): MaxPool2d(kernel_size=2, stride=2, padding=1, dilation=1, ceil_mode=False)
    (6): Conv2d(512, 512, kernel_size=(3, 3), stride=(1, 1), padding=(1, 1))
    (7): ReLU()
    (8): MaxPool2d(kernel_size=2, stride=2, padding=1, dilation=1, ceil_mode=False)
    (9): Conv2d(512, 512, kernel_size=(3, 3), stride=(1, 1), padding=(1, 1))
    (10): ReLU()
    (11): MaxPool2d(kernel_size=2, stride=2, padding=1, dilation=1, ceil_mode=False)
    (12): Conv2d(512, 512, kernel_size=(3, 3), stride=(1, 1), padding=(1, 1))
    (13): ReLU()
    (14): MaxPool2d(kernel_size=2, stride=2, padding=1, dilation=1, ceil_mode=False)
    (15): Conv2d(512, 512, kernel_size=(3, 3), stride=(1, 1), padding=(1, 1))
    (16): ReLU()
    (17): MaxPool2d(kernel_size=2, stride=2, padding=1, dilation=1, ceil_mode=False)
  )
  (fc): Linear(in_features=2048, out_features=10, bias=True)
)
Number of trainable parameters per layer:
conv_layers.0.weight: 3456
conv_layers.0.bias: 128
conv_layers.3.weight: 589824
conv_layers.3.bias: 512
conv_layers.6.weight: 2359296
conv_layers.6.bias: 512
conv_layers.9.weight: 2359296
conv_layers.9.bias: 512
conv_layers.12.weight: 2359296
conv_layers.12.bias: 512
conv_layers.15.weight: 2359296
conv_layers.15.bias: 512
…
2024-06-03 17:35:33,007:Level 1 : Registering BatchMatMulV2,flops (<function _calc_batch_mat_mul_flops at 0x7ba6a24c6a70>) in statistical functions.
2024-06-03 17:35:33,007:Level 1 : Registering BatchMatMul,flops (<function _calc_batch_mat_mul_flops at 0x7ba6a24c6a70>) in statistical functions.
2024-06-03 17:35:33,154:Level 1 : Enabling eager execution
2024-06-03 17:35:33,154:Level 1 : Enabling v2 tensorshape
2024-06-03 17:35:33,154:Level 1 : Enabling resource variables
2024-06-03 17:35:33,154:Level 1 : Enabling tensor equality
2024-06-03 17:35:33,155:Level 1 : Enabling control flow v2
2024-06-03 17:35:33,324:INFO : NumExpr defaulting to 2 threads.
2024-06-03 17:35:34,196:INFO : ConvNet(
  (conv_layers): Sequential(
    (0): Conv2d(3, 128, kernel_size=(3, 3), stride=(1, 1), padding=(1, 1))
    (1): BatchNorm2d(128, eps=1e-05, momentum=0.1, affine=True, track_running_stats=True)
    (2): ReLU()
    (3): MaxPool2d(kernel_size=2, stride=2, padding=1, dilation=1, ceil_mode=False)
    (4): Conv2d(128, 512, kernel_size=(3, 3), stride=(1, 1), padding=(1, 1))
    (5): BatchNorm2d(512, eps=1e-05, momentum=0.1, affine=True, track_running_stats=True)
    (6): ReLU()
    (7): MaxPool2d(kernel_size=2, stride=2, padding=1, dilation=1, ceil_mode=False)
    (8): Conv2d(512, 512, kernel_size=(3, 3), stride=(1, 1), padding=(1, 1))
    (9): BatchNorm2d(512, eps=1e-05, momentum=0.1, affine=True, track_running_stats=True)
    (10): ReLU()
    (11): MaxPool2d(kernel_size=2, stride=2, padding=1, dilation=1, ceil_mode=False)
    (12): Conv2d(512, 512, kernel_size=(3, 3), stride=(1, 1), padding=(1, 1))
    (13): BatchNorm2d(512, eps=1e-05, momentum=0.1, affine=True, track_running_stats=True)
    (14): ReLU()
    (15): MaxPool2d(kernel_size=2, stride=2, padding=1, dilation=1, ceil_mode=False)
    (16): Conv2d(512, 512, kernel_size=(3, 3), stride=(1, 1), padding=(1, 1))
    (17): BatchNorm2d(512, eps=1e-05, momentum=0.1, affine=True, track_running_stats=True)
    (18): ReLU()
    (19): MaxPool2d(kernel_size=2, stride=2, padding=1, dilation=1, ceil_mode=False)
    (20): Conv2d(512, 512, kernel_size=(3, 3), stride=(1, 1), padding=(1, 1))
    (21): BatchNorm2d(512, eps=1e-05, momentum=0.1, affine=True, track_running_stats=True)
    (22): ReLU()
    (23): MaxPool2d(kernel_size=2, stride=2, padding=1, dilation=1, ceil_mode=False)
  )
  (fc): Linear(in_features=2048, out_features=10, bias=True)
)
Number of trainable parameters per layer:
conv_layers.0.weight: 3456
conv_layers.0.bias: 128
conv_layers.1.weight: 128
conv_layers.1.bias: 128
conv_layers.4.weight: 589824
conv_layers.4.bias: 512
conv_layers.5.weight: 512
conv_layers.5.bias: 512
conv_layers.8.weight: 2359296
conv_layers.8.bias: 512
conv_layers.9.weight: 512
conv_layers.9.bias: 512
conv_layers.12.weight: 2359296
…
